__________________________________________________________________________________________________
Layer (type)                    Output Shape         Param #     Connected to                     
==================================================================================================
input_1 (InputLayer)            (None, 10547, 1)     0                                            
__________________________________________________________________________________________________
zero_padding1d_1 (ZeroPadding1D (None, 10560, 1)     0           input_1[0][0]                    
__________________________________________________________________________________________________
conv1d_1 (Conv1D)               (None, 10560, 64)    192         zero_padding1d_1[0][0]           
__________________________________________________________________________________________________
activation_1 (Activation)       (None, 10560, 64)    0           conv1d_1[0][0]                   
__________________________________________________________________________________________________
lambda_1 (Lambda)               (None, 329, 64, 64)  0           activation_1[0][0]               
__________________________________________________________________________________________________
reshape_5 (Reshape)             (None, 329, 4096)    0           lambda_1[0][0]                   
__________________________________________________________________________________________________
bidirectional_1 (Bidirectional) (None, 329, 200)     3357600     reshape_5[0][0]                  
__________________________________________________________________________________________________
bidirectional_2 (Bidirectional) (None, 329, 200)     240800      bidirectional_1[0][0]            
__________________________________________________________________________________________________
dense_1 (Dense)                 (None, 329, 16384)   3293184     bidirectional_2[0][0]            
__________________________________________________________________________________________________
reshape_6 (Reshape)             (None, 329, 64, 256) 0           dense_1[0][0]                    
__________________________________________________________________________________________________
lambda_2 (Lambda)               (None, None, 256)    0           reshape_6[0][0]                  
__________________________________________________________________________________________________
reshape_7 (Reshape)             (None, 10560, 64, 4) 0           lambda_2[0][0]                   
__________________________________________________________________________________________________
lambda_3 (Lambda)               (None, 10560, 64)    0           reshape_7[0][0]                  
__________________________________________________________________________________________________
lambda_6 (Lambda)               (None, 10560, 64)    0           reshape_7[0][0]                  
__________________________________________________________________________________________________
lambda_9 (Lambda)               (None, 10560, 64)    0           reshape_7[0][0]                  
__________________________________________________________________________________________________
lambda_12 (Lambda)              (None, 10560, 64)    0           reshape_7[0][0]                  
__________________________________________________________________________________________________
multiply_1 (Multiply)           (None, 10560, 64)    0           activation_1[0][0]               
                                                                 lambda_3[0][0]                   
__________________________________________________________________________________________________
multiply_2 (Multiply)           (None, 10560, 64)    0           activation_1[0][0]               
                                                                 lambda_6[0][0]                   
__________________________________________________________________________________________________
multiply_3 (Multiply)           (None, 10560, 64)    0           activation_1[0][0]               
                                                                 lambda_9[0][0]                   
__________________________________________________________________________________________________
multiply_4 (Multiply)           (None, 10560, 64)    0           activation_1[0][0]               
                                                                 lambda_12[0][0]                  
__________________________________________________________________________________________________
dense_2 (Dense)                 (None, 10560, 2)     130         multiply_1[0][0]                 
__________________________________________________________________________________________________
dense_3 (Dense)                 (None, 10560, 2)     130         multiply_2[0][0]                 
__________________________________________________________________________________________________
dense_4 (Dense)                 (None, 10560, 2)     130         multiply_3[0][0]                 
__________________________________________________________________________________________________
dense_5 (Dense)                 (None, 10560, 2)     130         multiply_4[0][0]                 
__________________________________________________________________________________________________
lambda_4 (Lambda)               (None, None)         0           dense_2[0][0]                    
__________________________________________________________________________________________________
lambda_7 (Lambda)               (None, None)         0           dense_3[0][0]                    
…
