Model: "model"
__________________________________________________________________________________________________
Layer (type)                    Output Shape         Param #     Connected to                     
==================================================================================================
input_1 (InputLayer)            [(None, 10547, 1)]   0                                            
__________________________________________________________________________________________________
conv1d (Conv1D)                 (None, 10547, 64)    192         input_1[0][0]                    
__________________________________________________________________________________________________
layer_normalization (LayerNorma (None, 10547, 64)    128         conv1d[0][0]                     
__________________________________________________________________________________________________
bottleneck_layer (Conv1D)       (None, 10547, 64)    4160        layer_normalization[0][0]        
__________________________________________________________________________________________________
conv1d_1 (Conv1D)               (None, 10547, 128)   8320        bottleneck_layer[0][0]           
__________________________________________________________________________________________________
p_re_lu (PReLU)                 (None, 10547, 128)   128         conv1d_1[0][0]                   
__________________________________________________________________________________________________
global_normalization (GlobalNor (None, 10547, 128)   256         p_re_lu[0][0]                    
__________________________________________________________________________________________________
zero_padding1d (ZeroPadding1D)  (None, 10549, 128)   0           global_normalization[0][0]       
__________________________________________________________________________________________________
depthwise_conv1d (DepthwiseConv (None, 10547, 128)   512         zero_padding1d[0][0]             
__________________________________________________________________________________________________
p_re_lu_1 (PReLU)               (None, 10547, 128)   128         depthwise_conv1d[0][0]           
__________________________________________________________________________________________________
global_normalization_1 (GlobalN (None, 10547, 128)   256         p_re_lu_1[0][0]                  
__________________________________________________________________________________________________
conv1d_2 (Conv1D)               (None, 10547, 64)    8256        global_normalization_1[0][0]     
__________________________________________________________________________________________________
add (Add)                       (None, 10547, 64)    0           bottleneck_layer[0][0]           
                                                                 conv1d_2[0][0]                   
__________________________________________________________________________________________________
conv1d_4 (Conv1D)               (None, 10547, 128)   8320        add[0][0]                        
__________________________________________________________________________________________________
p_re_lu_2 (PReLU)               (None, 10547, 128)   128         conv1d_4[0][0]                   
__________________________________________________________________________________________________
global_normalization_2 (GlobalN (None, 10547, 128)   256         p_re_lu_2[0][0]                  
__________________________________________________________________________________________________
zero_padding1d_1 (ZeroPadding1D (None, 10551, 128)   0           global_normalization_2[0][0]     
__________________________________________________________________________________________________
depthwise_conv1d_1 (DepthwiseCo (None, 10547, 128)   512         zero_padding1d_1[0][0]           
__________________________________________________________________________________________________
p_re_lu_3 (PReLU)               (None, 10547, 128)   128         depthwise_conv1d_1[0][0]         
__________________________________________________________________________________________________
global_normalization_3 (GlobalN (None, 10547, 128)   256         p_re_lu_3[0][0]                  
__________________________________________________________________________________________________
conv1d_5 (Conv1D)               (None, 10547, 64)    8256        global_normalization_3[0][0]     
__________________________________________________________________________________________________
add_1 (Add)                     (None, 10547, 64)    0           add[0][0]                        
                                                                 conv1d_5[0][0]                   
__________________________________________________________________________________________________
conv1d_7 (Conv1D)               (None, 10547, 128)   8320        add_1[0][0]                      
__________________________________________________________________________________________________
p_re_lu_4 (PReLU)               (None, 10547, 128)   128         conv1d_7[0][0]                   
__________________________________________________________________________________________________
global_normalization_4 (GlobalN (None, 10547, 128)   256         p_re_lu_4[0][0]                  
__________________________________________________________________________________________________
zero_padding1d_2 (ZeroPadding1D (None, 10555, 128)   0           global_normalization_4[0][0]     
__________________________________________________________________________________________________
depthwise_conv1d_2 (DepthwiseCo (None, 10547, 128)   512         zero_padding1d_2[0][0]           
__________________________________________________________________________________________________
p_re_lu_5 (PReLU)               (None, 10547, 128)   128         depthwise_conv1d_2[0][0]         
__________________________________________________________________________________________________
global_normalization_5 (GlobalN (None, 10547, 128)   256         p_re_lu_5[0][0]                  
__________________________________________________________________________________________________
conv1d_8 (Conv1D)               (None, 10547, 64)    8256        global_normalization_5[0][0]     
__________________________________________________________________________________________________
add_2 (Add)                     (None, 10547, 64)    0           add_1[0][0]                      
                                                                 conv1d_8[0][0]                   
__________________________________________________________________________________________________
conv1d_10 (Conv1D)              (None, 10547, 128)   8320        add_2[0][0]                      
__________________________________________________________________________________________________
p_re_lu_6 (PReLU)               (None, 10547, 128)   128         conv1d_10[0][0]                  
__________________________________________________________________________________________________
global_normalization_6 (GlobalN (None, 10547, 128)   256         p_re_lu_6[0][0]                  
__________________________________________________________________________________________________
zero_padding1d_3 (ZeroPadding1D (None, 10563, 128)   0           global_normalization_6[0][0]     
__________________________________________________________________________________________________
depthwise_conv1d_3 (DepthwiseCo (None, 10547, 128)   512         zero_padding1d_3[0][0]           
__________________________________________________________________________________________________
p_re_lu_7 (PReLU)               (None, 10547, 128)   128         depthwise_conv1d_3[0][0]         
__________________________________________________________________________________________________
global_normalization_7 (GlobalN (None, 10547, 128)   256         p_re_lu_7[0][0]                  
__________________________________________________________________________________________________
conv1d_11 (Conv1D)              (None, 10547, 64)    8256        global_normalization_7[0][0]     
__________________________________________________________________________________________________
add_3 (Add)                     (None, 10547, 64)    0           add_2[0][0]                      
                                                                 conv1d_11[0][0]                  
__________________________________________________________________________________________________
conv1d_13 (Conv1D)              (None, 10547, 128)   8320        add_3[0][0]                      
__________________________________________________________________________________________________
p_re_lu_8 (PReLU)               (None, 10547, 128)   128         conv1d_13[0][0]                  
__________________________________________________________________________________________________
global_normalization_8 (GlobalN (None, 10547, 128)   256         p_re_lu_8[0][0]                  
__________________________________________________________________________________________________
zero_padding1d_4 (ZeroPadding1D (None, 10579, 128)   0           global_normalization_8[0][0]     
__________________________________________________________________________________________________
depthwise_conv1d_4 (DepthwiseCo (None, 10547, 128)   512         zero_padding1d_4[0][0]           
__________________________________________________________________________________________________
p_re_lu_9 (PReLU)               (None, 10547, 128)   128         depthwise_conv1d_4[0][0]         
__________________________________________________________________________________________________
global_normalization_9 (GlobalN (None, 10547, 128)   256         p_re_lu_9[0][0]                  
__________________________________________________________________________________________________
conv1d_3 (Conv1D)               (None, 10547, 64)    8256        global_normalization_1[0][0]     
__________________________________________________________________________________________________
conv1d_6 (Conv1D)               (None, 10547, 64)    8256        global_normalization_3[0][0]     
__________________________________________________________________________________________________
conv1d_9 (Conv1D)               (None, 10547, 64)    8256        global_normalization_5[0][0]     
__________________________________________________________________________________________________
conv1d_12 (Conv1D)              (None, 10547, 64)    8256        global_normalization_7[0][0]     
__________________________________________________________________________________________________
conv1d_15 (Conv1D)              (None, 10547, 64)    8256        global_normalization_9[0][0]     
__________________________________________________________________________________________________
add_5 (Add)                     (None, 10547, 64)    0           conv1d_3[0][0]                   
                                                                 conv1d_6[0][0]                   
                                                                 conv1d_9[0][0]                   
                                                                 conv1d_12[0][0]                  
                                                                 conv1d_15[0][0]                  
__________________________________________________________________________________________________
Dense_me_0 (Dense)              (None, 10547, 64)    4160        add_5[0][0]                      
__________________________________________________________________________________________________
Dense_me_1 (Dense)              (None, 10547, 64)    4160        add_5[0][0]                      
__________________________________________________________________________________________________
Dense_me_2 (Dense)              (None, 10547, 64)    4160        add_5[0][0]                      
__________________________________________________________________________________________________
Dense_me_3 (Dense)              (None, 10547, 64)    4160        add_5[0][0]                      
__________________________________________________________________________________________________
conv1d_16 (Conv1D)              (None, 10547, 128)   8320        Dense_me_0[0][0]                 
__________________________________________________________________________________________________
conv1d_47 (Conv1D)              (None, 10547, 128)   8320        Dense_me_1[0][0]                 
__________________________________________________________________________________________________
conv1d_78 (Conv1D)              (None, 10547, 128)   8320        Dense_me_2[0][0]                 
__________________________________________________________________________________________________
conv1d_109 (Conv1D)             (None, 10547, 128)   8320        Dense_me_3[0][0]                 
__________________________________________________________________________________________________
p_re_lu_10 (PReLU)              (None, 10547, 128)   128         conv1d_16[0][0]                  
__________________________________________________________________________________________________
p_re_lu_31 (PReLU)              (None, 10547, 128)   128         conv1d_47[0][0]                  
__________________________________________________________________________________________________
p_re_lu_52 (PReLU)              (None, 10547, 128)   128         conv1d_78[0][0]                  
__________________________________________________________________________________________________
p_re_lu_73 (PReLU)              (None, 10547, 128)   128         conv1d_109[0][0]                 
__________________________________________________________________________________________________
global_normalization_10 (Global (None, 10547, 128)   256         p_re_lu_10[0][0]                 
__________________________________________________________________________________________________
global_normalization_31 (Global (None, 10547, 128)   256         p_re_lu_31[0][0]                 
__________________________________________________________________________________________________
global_normalization_52 (Global (None, 10547, 128)   256         p_re_lu_52[0][0]                 
__________________________________________________________________________________________________
global_normalization_73 (Global (None, 10547, 128)   256         p_re_lu_73[0][0]                 
__________________________________________________________________________________________________
zero_padding1d_5 (ZeroPadding1D (None, 10549, 128)   0           global_normalization_10[0][0]    
__________________________________________________________________________________________________
zero_padding1d_15 (ZeroPadding1 (None, 10549, 128)   0           global_normalization_31[0][0]    
__________________________________________________________________________________________________
zero_padding1d_25 (ZeroPadding1 (None, 10549, 128)   0           global_normalization_52[0][0]    
__________________________________________________________________________________________________
zero_padding1d_35 (ZeroPadding1 (None, 10549, 128)   0           global_normalization_73[0][0]    
__________________________________________________________________________________________________
depthwise_conv1d_5 (DepthwiseCo (None, 10547, 128)   512         zero_padding1d_5[0][0]           
__________________________________________________________________________________________________
depthwise_conv1d_15 (DepthwiseC (None, 10547, 128)   512         zero_padding1d_15[0][0]          
__________________________________________________________________________________________________
depthwise_conv1d_25 (DepthwiseC (None, 10547, 128)   512         zero_padding1d_25[0][0]          
__________________________________________________________________________________________________
depthwise_conv1d_35 (DepthwiseC (None, 10547, 128)   512         zero_padding1d_35[0][0]          
__________________________________________________________________________________________________
p_re_lu_11 (PReLU)              (None, 10547, 128)   128         depthwise_conv1d_5[0][0]         
__________________________________________________________________________________________________
p_re_lu_32 (PReLU)              (None, 10547, 128)   128         depthwise_conv1d_15[0][0]        
__________________________________________________________________________________________________
p_re_lu_53 (PReLU)              (None, 10547, 128)   128         depthwise_conv1d_25[0][0]        
__________________________________________________________________________________________________
p_re_lu_74 (PReLU)              (None, 10547, 128)   128         depthwise_conv1d_35[0][0]        
__________________________________________________________________________________________________
global_normalization_11 (Global (None, 10547, 128)   256         p_re_lu_11[0][0]                 
__________________________________________________________________________________________________
global_normalization_32 (Global (None, 10547, 128)   256         p_re_lu_32[0][0]                 
__________________________________________________________________________________________________
global_normalization_53 (Global (None, 10547, 128)   256         p_re_lu_53[0][0]                 
__________________________________________________________________________________________________
global_normalization_74 (Global (None, 10547, 128)   256         p_re_lu_74[0][0]                 
__________________________________________________________________________________________________
conv1d_17 (Conv1D)              (None, 10547, 64)    8256        global_normalization_11[0][0]    
__________________________________________________________________________________________________
conv1d_48 (Conv1D)              (None, 10547, 64)    8256        global_normalization_32[0][0]    
__________________________________________________________________________________________________
conv1d_79 (Conv1D)              (None, 10547, 64)    8256        global_normalization_53[0][0]    
__________________________________________________________________________________________________
conv1d_110 (Conv1D)             (None, 10547, 64)    8256        global_normalization_74[0][0]    
__________________________________________________________________________________________________
add_6 (Add)                     (None, 10547, 64)    0           Dense_me_0[0][0]                 
                                                                 conv1d_17[0][0]                  
__________________________________________________________________________________________________
add_19 (Add)                    (None, 10547, 64)    0           Dense_me_1[0][0]                 
                                                                 conv1d_48[0][0]                  
__________________________________________________________________________________________________
add_32 (Add)                    (None, 10547, 64)    0           Dense_me_2[0][0]                 
                                                                 conv1d_79[0][0]                  
__________________________________________________________________________________________________
add_45 (Add)                    (None, 10547, 64)    0           Dense_me_3[0][0]                 
                                                                 conv1d_110[0][0]                 
__________________________________________________________________________________________________
conv1d_19 (Conv1D)              (None, 10547, 128)   8320        add_6[0][0]                      
__________________________________________________________________________________________________
conv1d_50 (Conv1D)              (None, 10547, 128)   8320        add_19[0][0]                     
__________________________________________________________________________________________________
conv1d_81 (Conv1D)              (None, 10547, 128)   8320        add_32[0][0]                     
__________________________________________________________________________________________________
conv1d_112 (Conv1D)             (None, 10547, 128)   8320        add_45[0][0]                     
__________________________________________________________________________________________________
p_re_lu_12 (PReLU)              (None, 10547, 128)   128         conv1d_19[0][0]                  
__________________________________________________________________________________________________
p_re_lu_33 (PReLU)              (None, 10547, 128)   128         conv1d_50[0][0]                  
__________________________________________________________________________________________________
p_re_lu_54 (PReLU)              (None, 10547, 128)   128         conv1d_81[0][0]                  
__________________________________________________________________________________________________
p_re_lu_75 (PReLU)              (None, 10547, 128)   128         conv1d_112[0][0]                 
__________________________________________________________________________________________________
global_normalization_12 (Global (None, 10547, 128)   256         p_re_lu_12[0][0]                 
__________________________________________________________________________________________________
global_normalization_33 (Global (None, 10547, 128)   256         p_re_lu_33[0][0]                 
__________________________________________________________________________________________________
global_normalization_54 (Global (None, 10547, 128)   256         p_re_lu_54[0][0]                 
__________________________________________________________________________________________________
global_normalization_75 (Global (None, 10547, 128)   256         p_re_lu_75[0][0]                 
__________________________________________________________________________________________________
zero_padding1d_6 (ZeroPadding1D (None, 10551, 128)   0           global_normalization_12[0][0]    
__________________________________________________________________________________________________
zero_padding1d_16 (ZeroPadding1 (None, 10551, 128)   0           global_normalization_33[0][0]    
__________________________________________________________________________________________________
zero_padding1d_26 (ZeroPadding1 (None, 10551, 128)   0           global_normalization_54[0][0]    
__________________________________________________________________________________________________
zero_padding1d_36 (ZeroPadding1 (None, 10551, 128)   0           global_normalization_75[0][0]    
__________________________________________________________________________________________________
depthwise_conv1d_6 (DepthwiseCo (None, 10547, 128)   512         zero_padding1d_6[0][0]           
__________________________________________________________________________________________________
depthwise_conv1d_16 (DepthwiseC (None, 10547, 128)   512         zero_padding1d_16[0][0]          
__________________________________________________________________________________________________
depthwise_conv1d_26 (DepthwiseC (None, 10547, 128)   512         zero_padding1d_26[0][0]          
__________________________________________________________________________________________________
depthwise_conv1d_36 (DepthwiseC (None, 10547, 128)   512         zero_padding1d_36[0][0]          
__________________________________________________________________________________________________
p_re_lu_13 (PReLU)              (None, 10547, 128)   128         depthwise_conv1d_6[0][0]         
__________________________________________________________________________________________________
p_re_lu_34 (PReLU)              (None, 10547, 128)   128         depthwise_conv1d_16[0][0]        
__________________________________________________________________________________________________
p_re_lu_55 (PReLU)              (None, 10547, 128)   128         depthwise_conv1d_26[0][0]        
__________________________________________________________________________________________________
p_re_lu_76 (PReLU)              (None, 10547, 128)   128         depthwise_conv1d_36[0][0]        
__________________________________________________________________________________________________
global_normalization_13 (Global (None, 10547, 128)   256         p_re_lu_13[0][0]                 
__________________________________________________________________________________________________
global_normalization_34 (Global (None, 10547, 128)   256         p_re_lu_34[0][0]                 
__________________________________________________________________________________________________
global_normalization_55 (Global (None, 10547, 128)   256         p_re_lu_55[0][0]                 
__________________________________________________________________________________________________
global_normalization_76 (Global (None, 10547, 128)   256         p_re_lu_76[0][0]                 
__________________________________________________________________________________________________
conv1d_20 (Conv1D)              (None, 10547, 64)    8256        global_normalization_13[0][0]    
__________________________________________________________________________________________________
conv1d_51 (Conv1D)              (None, 10547, 64)    8256        global_normalization_34[0][0]    
__________________________________________________________________________________________________
conv1d_82 (Conv1D)              (None, 10547, 64)    8256        global_normalization_55[0][0]    
__________________________________________________________________________________________________
conv1d_113 (Conv1D)             (None, 10547, 64)    8256        global_normalization_76[0][0]    
__________________________________________________________________________________________________
add_7 (Add)                     (None, 10547, 64)    0           add_6[0][0]                      
                                                                 conv1d_20[0][0]                  
__________________________________________________________________________________________________
add_20 (Add)                    (None, 10547, 64)    0           add_19[0][0]                     
                                                                 conv1d_51[0][0]                  
__________________________________________________________________________________________________
add_33 (Add)                    (None, 10547, 64)    0           add_32[0][0]                     
                                                                 conv1d_82[0][0]                  
__________________________________________________________________________________________________
add_46 (Add)                    (None, 10547, 64)    0           add_45[0][0]                     
                                                                 conv1d_113[0][0]                 
__________________________________________________________________________________________________
conv1d_22 (Conv1D)              (None, 10547, 128)   8320        add_7[0][0]                      
__________________________________________________________________________________________________
conv1d_53 (Conv1D)              (None, 10547, 128)   8320        add_20[0][0]                     
__________________________________________________________________________________________________
conv1d_84 (Conv1D)              (None, 10547, 128)   8320        add_33[0][0]                     
__________________________________________________________________________________________________
conv1d_115 (Conv1D)             (None, 10547, 128)   8320        add_46[0][0]                     
__________________________________________________________________________________________________
p_re_lu_14 (PReLU)              (None, 10547, 128)   128         conv1d_22[0][0]                  
__________________________________________________________________________________________________
p_re_lu_35 (PReLU)              (None, 10547, 128)   128         conv1d_53[0][0]                  
__________________________________________________________________________________________________
p_re_lu_56 (PReLU)              (None, 10547, 128)   128         conv1d_84[0][0]                  
__________________________________________________________________________________________________
p_re_lu_77 (PReLU)              (None, 10547, 128)   128         conv1d_115[0][0]                 
__________________________________________________________________________________________________
global_normalization_14 (Global (None, 10547, 128)   256         p_re_lu_14[0][0]                 
__________________________________________________________________________________________________
global_normalization_35 (Global (None, 10547, 128)   256         p_re_lu_35[0][0]                 
__________________________________________________________________________________________________
global_normalization_56 (Global (None, 10547, 128)   256         p_re_lu_56[0][0]                 
__________________________________________________________________________________________________
global_normalization_77 (Global (None, 10547, 128)   256         p_re_lu_77[0][0]                 
__________________________________________________________________________________________________
zero_padding1d_7 (ZeroPadding1D (None, 10555, 128)   0           global_normalization_14[0][0]    
__________________________________________________________________________________________________
zero_padding1d_17 (ZeroPadding1 (None, 10555, 128)   0           global_normalization_35[0][0]    
__________________________________________________________________________________________________
zero_padding1d_27 (ZeroPadding1 (None, 10555, 128)   0           global_normalization_56[0][0]    
__________________________________________________________________________________________________
zero_padding1d_37 (ZeroPadding1 (None, 10555, 128)   0           global_normalization_77[0][0]    
__________________________________________________________________________________________________
depthwise_conv1d_7 (DepthwiseCo (None, 10547, 128)   512         zero_padding1d_7[0][0]           
__________________________________________________________________________________________________
depthwise_conv1d_17 (DepthwiseC (None, 10547, 128)   512         zero_padding1d_17[0][0]          
__________________________________________________________________________________________________
depthwise_conv1d_27 (DepthwiseC (None, 10547, 128)   512         zero_padding1d_27[0][0]          
__________________________________________________________________________________________________
depthwise_conv1d_37 (DepthwiseC (None, 10547, 128)   512         zero_padding1d_37[0][0]          
__________________________________________________________________________________________________
p_re_lu_15 (PReLU)              (None, 10547, 128)   128         depthwise_conv1d_7[0][0]         
__________________________________________________________________________________________________
p_re_lu_36 (PReLU)              (None, 10547, 128)   128         depthwise_conv1d_17[0][0]        
__________________________________________________________________________________________________
p_re_lu_57 (PReLU)              (None, 10547, 128)   128         depthwise_conv1d_27[0][0]        
__________________________________________________________________________________________________
p_re_lu_78 (PReLU)              (None, 10547, 128)   128         depthwise_conv1d_37[0][0]        
__________________________________________________________________________________________________
global_normalization_15 (Global (None, 10547, 128)   256         p_re_lu_15[0][0]                 
__________________________________________________________________________________________________
global_normalization_36 (Global (None, 10547, 128)   256         p_re_lu_36[0][0]                 
__________________________________________________________________________________________________
global_normalization_57 (Global (None, 10547, 128)   256         p_re_lu_57[0][0]                 
__________________________________________________________________________________________________
global_normalization_78 (Global (None, 10547, 128)   256         p_re_lu_78[0][0]                 
__________________________________________________________________________________________________
conv1d_23 (Conv1D)              (None, 10547, 64)    8256        global_normalization_15[0][0]    
__________________________________________________________________________________________________
conv1d_54 (Conv1D)              (None, 10547, 64)    8256        global_normalization_36[0][0]    
__________________________________________________________________________________________________
conv1d_85 (Conv1D)              (None, 10547, 64)    8256        global_normalization_57[0][0]    
__________________________________________________________________________________________________
conv1d_116 (Conv1D)             (None, 10547, 64)    8256        global_normalization_78[0][0]    
__________________________________________________________________________________________________
add_8 (Add)                     (None, 10547, 64)    0           add_7[0][0]                      
                                                                 conv1d_23[0][0]                  
__________________________________________________________________________________________________
add_21 (Add)                    (None, 10547, 64)    0           add_20[0][0]                     
                                                                 conv1d_54[0][0]                  
__________________________________________________________________________________________________
add_34 (Add)                    (None, 10547, 64)    0           add_33[0][0]                     
                                                                 conv1d_85[0][0]                  
__________________________________________________________________________________________________
add_47 (Add)                    (None, 10547, 64)    0           add_46[0][0]                     
                                                                 conv1d_116[0][0]                 
__________________________________________________________________________________________________
conv1d_25 (Conv1D)              (None, 10547, 128)   8320        add_8[0][0]                      
__________________________________________________________________________________________________
conv1d_56 (Conv1D)              (None, 10547, 128)   8320        add_21[0][0]                     
__________________________________________________________________________________________________
conv1d_87 (Conv1D)              (None, 10547, 128)   8320        add_34[0][0]                     
__________________________________________________________________________________________________
conv1d_118 (Conv1D)             (None, 10547, 128)   8320        add_47[0][0]                     
__________________________________________________________________________________________________
p_re_lu_16 (PReLU)              (None, 10547, 128)   128         conv1d_25[0][0]                  
__________________________________________________________________________________________________
p_re_lu_37 (PReLU)              (None, 10547, 128)   128         conv1d_56[0][0]                  
__________________________________________________________________________________________________
p_re_lu_58 (PReLU)              (None, 10547, 128)   128         conv1d_87[0][0]                  
__________________________________________________________________________________________________
p_re_lu_79 (PReLU)              (None, 10547, 128)   128         conv1d_118[0][0]                 
__________________________________________________________________________________________________
global_normalization_16 (Global (None, 10547, 128)   256         p_re_lu_16[0][0]                 
__________________________________________________________________________________________________
global_normalization_37 (Global (None, 10547, 128)   256         p_re_lu_37[0][0]                 
__________________________________________________________________________________________________
global_normalization_58 (Global (None, 10547, 128)   256         p_re_lu_58[0][0]                 
__________________________________________________________________________________________________
global_normalization_79 (Global (None, 10547, 128)   256         p_re_lu_79[0][0]                 
__________________________________________________________________________________________________
zero_padding1d_8 (ZeroPadding1D (None, 10563, 128)   0           global_normalization_16[0][0]    
__________________________________________________________________________________________________
zero_padding1d_18 (ZeroPadding1 (None, 10563, 128)   0           global_normalization_37[0][0]    
__________________________________________________________________________________________________
zero_padding1d_28 (ZeroPadding1 (None, 10563, 128)   0           global_normalization_58[0][0]    
__________________________________________________________________________________________________
zero_padding1d_38 (ZeroPadding1 (None, 10563, 128)   0           global_normalization_79[0][0]    
__________________________________________________________________________________________________
depthwise_conv1d_8 (DepthwiseCo (None, 10547, 128)   512         zero_padding1d_8[0][0]           
__________________________________________________________________________________________________
depthwise_conv1d_18 (DepthwiseC (None, 10547, 128)   512         zero_padding1d_18[0][0]          
__________________________________________________________________________________________________
depthwise_conv1d_28 (DepthwiseC (None, 10547, 128)   512         zero_padding1d_28[0][0]          
__________________________________________________________________________________________________
depthwise_conv1d_38 (DepthwiseC (None, 10547, 128)   512         zero_padding1d_38[0][0]          
__________________________________________________________________________________________________
p_re_lu_17 (PReLU)              (None, 10547, 128)   128         depthwise_conv1d_8[0][0]         
__________________________________________________________________________________________________
p_re_lu_38 (PReLU)              (None, 10547, 128)   128         depthwise_conv1d_18[0][0]        
__________________________________________________________________________________________________
p_re_lu_59 (PReLU)              (None, 10547, 128)   128         depthwise_conv1d_28[0][0]        
__________________________________________________________________________________________________
p_re_lu_80 (PReLU)              (None, 10547, 128)   128         depthwise_conv1d_38[0][0]        
__________________________________________________________________________________________________
global_normalization_17 (Global (None, 10547, 128)   256         p_re_lu_17[0][0]                 
__________________________________________________________________________________________________
global_normalization_38 (Global (None, 10547, 128)   256         p_re_lu_38[0][0]                 
__________________________________________________________________________________________________
global_normalization_59 (Global (None, 10547, 128)   256         p_re_lu_59[0][0]                 
__________________________________________________________________________________________________
global_normalization_80 (Global (None, 10547, 128)   256         p_re_lu_80[0][0]                 
__________________________________________________________________________________________________
conv1d_26 (Conv1D)              (None, 10547, 64)    8256        global_normalization_17[0][0]    
__________________________________________________________________________________________________
conv1d_57 (Conv1D)              (None, 10547, 64)    8256        global_normalization_38[0][0]    
__________________________________________________________________________________________________
conv1d_88 (Conv1D)              (None, 10547, 64)    8256        global_normalization_59[0][0]    
__________________________________________________________________________________________________
conv1d_119 (Conv1D)             (None, 10547, 64)    8256        global_normalization_80[0][0]    
__________________________________________________________________________________________________
add_9 (Add)                     (None, 10547, 64)    0           add_8[0][0]                      
                                                                 conv1d_26[0][0]                  
__________________________________________________________________________________________________
add_22 (Add)                    (None, 10547, 64)    0           add_21[0][0]                     
                                                                 conv1d_57[0][0]                  
__________________________________________________________________________________________________
add_35 (Add)                    (None, 10547, 64)    0           add_34[0][0]                     
                                                                 conv1d_88[0][0]                  
__________________________________________________________________________________________________
add_48 (Add)                    (None, 10547, 64)    0           add_47[0][0]                     
                                                                 conv1d_119[0][0]                 
__________________________________________________________________________________________________
conv1d_28 (Conv1D)              (None, 10547, 128)   8320        add_9[0][0]                      
__________________________________________________________________________________________________
conv1d_59 (Conv1D)              (None, 10547, 128)   8320        add_22[0][0]                     
__________________________________________________________________________________________________
conv1d_90 (Conv1D)              (None, 10547, 128)   8320        add_35[0][0]                     
__________________________________________________________________________________________________
conv1d_121 (Conv1D)             (None, 10547, 128)   8320        add_48[0][0]                     
__________________________________________________________________________________________________
p_re_lu_18 (PReLU)              (None, 10547, 128)   128         conv1d_28[0][0]                  
__________________________________________________________________________________________________
p_re_lu_39 (PReLU)              (None, 10547, 128)   128         conv1d_59[0][0]                  
__________________________________________________________________________________________________
p_re_lu_60 (PReLU)              (None, 10547, 128)   128         conv1d_90[0][0]                  
__________________________________________________________________________________________________
p_re_lu_81 (PReLU)              (None, 10547, 128)   128         conv1d_121[0][0]                 
__________________________________________________________________________________________________
global_normalization_18 (Global (None, 10547, 128)   256         p_re_lu_18[0][0]                 
__________________________________________________________________________________________________
global_normalization_39 (Global (None, 10547, 128)   256         p_re_lu_39[0][0]                 
__________________________________________________________________________________________________
global_normalization_60 (Global (None, 10547, 128)   256         p_re_lu_60[0][0]                 
__________________________________________________________________________________________________
global_normalization_81 (Global (None, 10547, 128)   256         p_re_lu_81[0][0]                 
__________________________________________________________________________________________________
zero_padding1d_9 (ZeroPadding1D (None, 10579, 128)   0           global_normalization_18[0][0]    
__________________________________________________________________________________________________
zero_padding1d_19 (ZeroPadding1 (None, 10579, 128)   0           global_normalization_39[0][0]    
__________________________________________________________________________________________________
zero_padding1d_29 (ZeroPadding1 (None, 10579, 128)   0           global_normalization_60[0][0]    
__________________________________________________________________________________________________
zero_padding1d_39 (ZeroPadding1 (None, 10579, 128)   0           global_normalization_81[0][0]    
__________________________________________________________________________________________________
depthwise_conv1d_9 (DepthwiseCo (None, 10547, 128)   512         zero_padding1d_9[0][0]           
__________________________________________________________________________________________________
depthwise_conv1d_19 (DepthwiseC (None, 10547, 128)   512         zero_padding1d_19[0][0]          
__________________________________________________________________________________________________
depthwise_conv1d_29 (DepthwiseC (None, 10547, 128)   512         zero_padding1d_29[0][0]          
__________________________________________________________________________________________________
depthwise_conv1d_39 (DepthwiseC (None, 10547, 128)   512         zero_padding1d_39[0][0]          
__________________________________________________________________________________________________
p_re_lu_19 (PReLU)              (None, 10547, 128)   128         depthwise_conv1d_9[0][0]         
__________________________________________________________________________________________________
p_re_lu_40 (PReLU)              (None, 10547, 128)   128         depthwise_conv1d_19[0][0]        
__________________________________________________________________________________________________
p_re_lu_61 (PReLU)              (None, 10547, 128)   128         depthwise_conv1d_29[0][0]        
__________________________________________________________________________________________________
p_re_lu_82 (PReLU)              (None, 10547, 128)   128         depthwise_conv1d_39[0][0]        
__________________________________________________________________________________________________
global_normalization_19 (Global (None, 10547, 128)   256         p_re_lu_19[0][0]                 
__________________________________________________________________________________________________
global_normalization_40 (Global (None, 10547, 128)   256         p_re_lu_40[0][0]                 
__________________________________________________________________________________________________
global_normalization_61 (Global (None, 10547, 128)   256         p_re_lu_61[0][0]                 
__________________________________________________________________________________________________
global_normalization_82 (Global (None, 10547, 128)   256         p_re_lu_82[0][0]                 
__________________________________________________________________________________________________
conv1d_29 (Conv1D)              (None, 10547, 64)    8256        global_normalization_19[0][0]    
__________________________________________________________________________________________________
conv1d_60 (Conv1D)              (None, 10547, 64)    8256        global_normalization_40[0][0]    
__________________________________________________________________________________________________
conv1d_91 (Conv1D)              (None, 10547, 64)    8256        global_normalization_61[0][0]    
__________________________________________________________________________________________________
conv1d_122 (Conv1D)             (None, 10547, 64)    8256        global_normalization_82[0][0]    
__________________________________________________________________________________________________
add_10 (Add)                    (None, 10547, 64)    0           add_9[0][0]                      
                                                                 conv1d_29[0][0]                  
__________________________________________________________________________________________________
add_23 (Add)                    (None, 10547, 64)    0           add_22[0][0]                     
                                                                 conv1d_60[0][0]                  
__________________________________________________________________________________________________
add_36 (Add)                    (None, 10547, 64)    0           add_35[0][0]                     
                                                                 conv1d_91[0][0]                  
__________________________________________________________________________________________________
add_49 (Add)                    (None, 10547, 64)    0           add_48[0][0]                     
                                                                 conv1d_122[0][0]                 
__________________________________________________________________________________________________
conv1d_31 (Conv1D)              (None, 10547, 128)   8320        add_10[0][0]                     
__________________________________________________________________________________________________
conv1d_62 (Conv1D)              (None, 10547, 128)   8320        add_23[0][0]                     
__________________________________________________________________________________________________
conv1d_93 (Conv1D)              (None, 10547, 128)   8320        add_36[0][0]                     
__________________________________________________________________________________________________
conv1d_124 (Conv1D)             (None, 10547, 128)   8320        add_49[0][0]                     
__________________________________________________________________________________________________
p_re_lu_20 (PReLU)              (None, 10547, 128)   128         conv1d_31[0][0]                  
__________________________________________________________________________________________________
p_re_lu_41 (PReLU)              (None, 10547, 128)   128         conv1d_62[0][0]                  
__________________________________________________________________________________________________
p_re_lu_62 (PReLU)              (None, 10547, 128)   128         conv1d_93[0][0]                  
__________________________________________________________________________________________________
p_re_lu_83 (PReLU)              (None, 10547, 128)   128         conv1d_124[0][0]                 
__________________________________________________________________________________________________
global_normalization_20 (Global (None, 10547, 128)   256         p_re_lu_20[0][0]                 
__________________________________________________________________________________________________
global_normalization_41 (Global (None, 10547, 128)   256         p_re_lu_41[0][0]                 
__________________________________________________________________________________________________
global_normalization_62 (Global (None, 10547, 128)   256         p_re_lu_62[0][0]                 
__________________________________________________________________________________________________
global_normalization_83 (Global (None, 10547, 128)   256         p_re_lu_83[0][0]                 
__________________________________________________________________________________________________
zero_padding1d_10 (ZeroPadding1 (None, 10549, 128)   0           global_normalization_20[0][0]    
__________________________________________________________________________________________________
zero_padding1d_20 (ZeroPadding1 (None, 10549, 128)   0           global_normalization_41[0][0]    
__________________________________________________________________________________________________
zero_padding1d_30 (ZeroPadding1 (None, 10549, 128)   0           global_normalization_62[0][0]    
__________________________________________________________________________________________________
zero_padding1d_40 (ZeroPadding1 (None, 10549, 128)   0           global_normalization_83[0][0]    
__________________________________________________________________________________________________
depthwise_conv1d_10 (DepthwiseC (None, 10547, 128)   512         zero_padding1d_10[0][0]          
__________________________________________________________________________________________________
depthwise_conv1d_20 (DepthwiseC (None, 10547, 128)   512         zero_padding1d_20[0][0]          
__________________________________________________________________________________________________
depthwise_conv1d_30 (DepthwiseC (None, 10547, 128)   512         zero_padding1d_30[0][0]          
__________________________________________________________________________________________________
depthwise_conv1d_40 (DepthwiseC (None, 10547, 128)   512         zero_padding1d_40[0][0]          
__________________________________________________________________________________________________
p_re_lu_21 (PReLU)              (None, 10547, 128)   128         depthwise_conv1d_10[0][0]        
__________________________________________________________________________________________________
p_re_lu_42 (PReLU)              (None, 10547, 128)   128         depthwise_conv1d_20[0][0]        
__________________________________________________________________________________________________
p_re_lu_63 (PReLU)              (None, 10547, 128)   128         depthwise_conv1d_30[0][0]        
__________________________________________________________________________________________________
p_re_lu_84 (PReLU)              (None, 10547, 128)   128         depthwise_conv1d_40[0][0]        
__________________________________________________________________________________________________
global_normalization_21 (Global (None, 10547, 128)   256         p_re_lu_21[0][0]                 
__________________________________________________________________________________________________
global_normalization_42 (Global (None, 10547, 128)   256         p_re_lu_42[0][0]                 
__________________________________________________________________________________________________
global_normalization_63 (Global (None, 10547, 128)   256         p_re_lu_63[0][0]                 
__________________________________________________________________________________________________
global_normalization_84 (Global (None, 10547, 128)   256         p_re_lu_84[0][0]                 
__________________________________________________________________________________________________
conv1d_32 (Conv1D)              (None, 10547, 64)    8256        global_normalization_21[0][0]    
__________________________________________________________________________________________________
conv1d_63 (Conv1D)              (None, 10547, 64)    8256        global_normalization_42[0][0]    
__________________________________________________________________________________________________
conv1d_94 (Conv1D)              (None, 10547, 64)    8256        global_normalization_63[0][0]    
__________________________________________________________________________________________________
conv1d_125 (Conv1D)             (None, 10547, 64)    8256        global_normalization_84[0][0]    
__________________________________________________________________________________________________
add_12 (Add)                    (None, 10547, 64)    0           add_10[0][0]                     
                                                                 conv1d_32[0][0]                  
__________________________________________________________________________________________________
add_25 (Add)                    (None, 10547, 64)    0           add_23[0][0]                     
                                                                 conv1d_63[0][0]                  
__________________________________________________________________________________________________
add_38 (Add)                    (None, 10547, 64)    0           add_36[0][0]                     
                                                                 conv1d_94[0][0]                  
__________________________________________________________________________________________________
add_51 (Add)                    (None, 10547, 64)    0           add_49[0][0]                     
                                                                 conv1d_125[0][0]                 
__________________________________________________________________________________________________
conv1d_34 (Conv1D)              (None, 10547, 128)   8320        add_12[0][0]                     
__________________________________________________________________________________________________
conv1d_65 (Conv1D)              (None, 10547, 128)   8320        add_25[0][0]                     
__________________________________________________________________________________________________
conv1d_96 (Conv1D)              (None, 10547, 128)   8320        add_38[0][0]                     
__________________________________________________________________________________________________
conv1d_127 (Conv1D)             (None, 10547, 128)   8320        add_51[0][0]                     
__________________________________________________________________________________________________
p_re_lu_22 (PReLU)              (None, 10547, 128)   128         conv1d_34[0][0]                  
__________________________________________________________________________________________________
p_re_lu_43 (PReLU)              (None, 10547, 128)   128         conv1d_65[0][0]                  
__________________________________________________________________________________________________
p_re_lu_64 (PReLU)              (None, 10547, 128)   128         conv1d_96[0][0]                  
__________________________________________________________________________________________________
p_re_lu_85 (PReLU)              (None, 10547, 128)   128         conv1d_127[0][0]                 
__________________________________________________________________________________________________
global_normalization_22 (Global (None, 10547, 128)   256         p_re_lu_22[0][0]                 
__________________________________________________________________________________________________
global_normalization_43 (Global (None, 10547, 128)   256         p_re_lu_43[0][0]                 
__________________________________________________________________________________________________
global_normalization_64 (Global (None, 10547, 128)   256         p_re_lu_64[0][0]                 
__________________________________________________________________________________________________
global_normalization_85 (Global (None, 10547, 128)   256         p_re_lu_85[0][0]                 
__________________________________________________________________________________________________
zero_padding1d_11 (ZeroPadding1 (None, 10551, 128)   0           global_normalization_22[0][0]    
__________________________________________________________________________________________________
zero_padding1d_21 (ZeroPadding1 (None, 10551, 128)   0           global_normalization_43[0][0]    
__________________________________________________________________________________________________
zero_padding1d_31 (ZeroPadding1 (None, 10551, 128)   0           global_normalization_64[0][0]    
__________________________________________________________________________________________________
zero_padding1d_41 (ZeroPadding1 (None, 10551, 128)   0           global_normalization_85[0][0]    
__________________________________________________________________________________________________
depthwise_conv1d_11 (DepthwiseC (None, 10547, 128)   512         zero_padding1d_11[0][0]          
__________________________________________________________________________________________________
depthwise_conv1d_21 (DepthwiseC (None, 10547, 128)   512         zero_padding1d_21[0][0]          
__________________________________________________________________________________________________
depthwise_conv1d_31 (DepthwiseC (None, 10547, 128)   512         zero_padding1d_31[0][0]          
__________________________________________________________________________________________________
depthwise_conv1d_41 (DepthwiseC (None, 10547, 128)   512         zero_padding1d_41[0][0]          
__________________________________________________________________________________________________
p_re_lu_23 (PReLU)              (None, 10547, 128)   128         depthwise_conv1d_11[0][0]        
__________________________________________________________________________________________________
p_re_lu_44 (PReLU)              (None, 10547, 128)   128         depthwise_conv1d_21[0][0]        
__________________________________________________________________________________________________
p_re_lu_65 (PReLU)              (None, 10547, 128)   128         depthwise_conv1d_31[0][0]        
__________________________________________________________________________________________________
p_re_lu_86 (PReLU)              (None, 10547, 128)   128         depthwise_conv1d_41[0][0]        
__________________________________________________________________________________________________
global_normalization_23 (Global (None, 10547, 128)   256         p_re_lu_23[0][0]                 
__________________________________________________________________________________________________
global_normalization_44 (Global (None, 10547, 128)   256         p_re_lu_44[0][0]                 
__________________________________________________________________________________________________
global_normalization_65 (Global (None, 10547, 128)   256         p_re_lu_65[0][0]                 
__________________________________________________________________________________________________
global_normalization_86 (Global (None, 10547, 128)   256         p_re_lu_86[0][0]                 
__________________________________________________________________________________________________
conv1d_35 (Conv1D)              (None, 10547, 64)    8256        global_normalization_23[0][0]    
__________________________________________________________________________________________________
conv1d_66 (Conv1D)              (None, 10547, 64)    8256        global_normalization_44[0][0]    
__________________________________________________________________________________________________
conv1d_97 (Conv1D)              (None, 10547, 64)    8256        global_normalization_65[0][0]    
__________________________________________________________________________________________________
conv1d_128 (Conv1D)             (None, 10547, 64)    8256        global_normalization_86[0][0]    
__________________________________________________________________________________________________
add_13 (Add)                    (None, 10547, 64)    0           add_12[0][0]                     
                                                                 conv1d_35[0][0]                  
__________________________________________________________________________________________________
add_26 (Add)                    (None, 10547, 64)    0           add_25[0][0]                     
                                                                 conv1d_66[0][0]                  
__________________________________________________________________________________________________
add_39 (Add)                    (None, 10547, 64)    0           add_38[0][0]                     
                                                                 conv1d_97[0][0]                  
__________________________________________________________________________________________________
add_52 (Add)                    (None, 10547, 64)    0           add_51[0][0]                     
                                                                 conv1d_128[0][0]                 
__________________________________________________________________________________________________
conv1d_37 (Conv1D)              (None, 10547, 128)   8320        add_13[0][0]                     
__________________________________________________________________________________________________
conv1d_68 (Conv1D)              (None, 10547, 128)   8320        add_26[0][0]                     
__________________________________________________________________________________________________
conv1d_99 (Conv1D)              (None, 10547, 128)   8320        add_39[0][0]                     
__________________________________________________________________________________________________
conv1d_130 (Conv1D)             (None, 10547, 128)   8320        add_52[0][0]                     
__________________________________________________________________________________________________
p_re_lu_24 (PReLU)              (None, 10547, 128)   128         conv1d_37[0][0]                  
__________________________________________________________________________________________________
p_re_lu_45 (PReLU)              (None, 10547, 128)   128         conv1d_68[0][0]                  
__________________________________________________________________________________________________
p_re_lu_66 (PReLU)              (None, 10547, 128)   128         conv1d_99[0][0]                  
__________________________________________________________________________________________________
p_re_lu_87 (PReLU)              (None, 10547, 128)   128         conv1d_130[0][0]                 
__________________________________________________________________________________________________
global_normalization_24 (Global (None, 10547, 128)   256         p_re_lu_24[0][0]                 
__________________________________________________________________________________________________
global_normalization_45 (Global (None, 10547, 128)   256         p_re_lu_45[0][0]                 
__________________________________________________________________________________________________
global_normalization_66 (Global (None, 10547, 128)   256         p_re_lu_66[0][0]                 
__________________________________________________________________________________________________
global_normalization_87 (Global (None, 10547, 128)   256         p_re_lu_87[0][0]                 
__________________________________________________________________________________________________
zero_padding1d_12 (ZeroPadding1 (None, 10555, 128)   0           global_normalization_24[0][0]    
__________________________________________________________________________________________________
zero_padding1d_22 (ZeroPadding1 (None, 10555, 128)   0           global_normalization_45[0][0]    
__________________________________________________________________________________________________
zero_padding1d_32 (ZeroPadding1 (None, 10555, 128)   0           global_normalization_66[0][0]    
__________________________________________________________________________________________________
zero_padding1d_42 (ZeroPadding1 (None, 10555, 128)   0           global_normalization_87[0][0]    
__________________________________________________________________________________________________
depthwise_conv1d_12 (DepthwiseC (None, 10547, 128)   512         zero_padding1d_12[0][0]          
__________________________________________________________________________________________________
depthwise_conv1d_22 (DepthwiseC (None, 10547, 128)   512         zero_padding1d_22[0][0]          
__________________________________________________________________________________________________
depthwise_conv1d_32 (DepthwiseC (None, 10547, 128)   512         zero_padding1d_32[0][0]          
__________________________________________________________________________________________________
depthwise_conv1d_42 (DepthwiseC (None, 10547, 128)   512         zero_padding1d_42[0][0]          
__________________________________________________________________________________________________
p_re_lu_25 (PReLU)              (None, 10547, 128)   128         depthwise_conv1d_12[0][0]        
__________________________________________________________________________________________________
p_re_lu_46 (PReLU)              (None, 10547, 128)   128         depthwise_conv1d_22[0][0]        
__________________________________________________________________________________________________
p_re_lu_67 (PReLU)              (None, 10547, 128)   128         depthwise_conv1d_32[0][0]        
__________________________________________________________________________________________________
p_re_lu_88 (PReLU)              (None, 10547, 128)   128         depthwise_conv1d_42[0][0]        
__________________________________________________________________________________________________
global_normalization_25 (Global (None, 10547, 128)   256         p_re_lu_25[0][0]                 
__________________________________________________________________________________________________
global_normalization_46 (Global (None, 10547, 128)   256         p_re_lu_46[0][0]                 
__________________________________________________________________________________________________
global_normalization_67 (Global (None, 10547, 128)   256         p_re_lu_67[0][0]                 
__________________________________________________________________________________________________
global_normalization_88 (Global (None, 10547, 128)   256         p_re_lu_88[0][0]                 
__________________________________________________________________________________________________
conv1d_38 (Conv1D)              (None, 10547, 64)    8256        global_normalization_25[0][0]    
__________________________________________________________________________________________________
conv1d_69 (Conv1D)              (None, 10547, 64)    8256        global_normalization_46[0][0]    
__________________________________________________________________________________________________
conv1d_100 (Conv1D)             (None, 10547, 64)    8256        global_normalization_67[0][0]    
__________________________________________________________________________________________________
conv1d_131 (Conv1D)             (None, 10547, 64)    8256        global_normalization_88[0][0]    
__________________________________________________________________________________________________
add_14 (Add)                    (None, 10547, 64)    0           add_13[0][0]                     
                                                                 conv1d_38[0][0]                  
__________________________________________________________________________________________________
add_27 (Add)                    (None, 10547, 64)    0           add_26[0][0]                     
                                                                 conv1d_69[0][0]                  
__________________________________________________________________________________________________
add_40 (Add)                    (None, 10547, 64)    0           add_39[0][0]                     
                                                                 conv1d_100[0][0]                 
__________________________________________________________________________________________________
add_53 (Add)                    (None, 10547, 64)    0           add_52[0][0]                     
                                                                 conv1d_131[0][0]                 
__________________________________________________________________________________________________
conv1d_40 (Conv1D)              (None, 10547, 128)   8320        add_14[0][0]                     
__________________________________________________________________________________________________
conv1d_71 (Conv1D)              (None, 10547, 128)   8320        add_27[0][0]                     
__________________________________________________________________________________________________
conv1d_102 (Conv1D)             (None, 10547, 128)   8320        add_40[0][0]                     
__________________________________________________________________________________________________
conv1d_133 (Conv1D)             (None, 10547, 128)   8320        add_53[0][0]                     
__________________________________________________________________________________________________
p_re_lu_26 (PReLU)              (None, 10547, 128)   128         conv1d_40[0][0]                  
__________________________________________________________________________________________________
p_re_lu_47 (PReLU)              (None, 10547, 128)   128         conv1d_71[0][0]                  
__________________________________________________________________________________________________
p_re_lu_68 (PReLU)              (None, 10547, 128)   128         conv1d_102[0][0]                 
__________________________________________________________________________________________________
p_re_lu_89 (PReLU)              (None, 10547, 128)   128         conv1d_133[0][0]                 
__________________________________________________________________________________________________
global_normalization_26 (Global (None, 10547, 128)   256         p_re_lu_26[0][0]                 
__________________________________________________________________________________________________
global_normalization_47 (Global (None, 10547, 128)   256         p_re_lu_47[0][0]                 
__________________________________________________________________________________________________
global_normalization_68 (Global (None, 10547, 128)   256         p_re_lu_68[0][0]                 
__________________________________________________________________________________________________
global_normalization_89 (Global (None, 10547, 128)   256         p_re_lu_89[0][0]                 
__________________________________________________________________________________________________
zero_padding1d_13 (ZeroPadding1 (None, 10563, 128)   0           global_normalization_26[0][0]    
__________________________________________________________________________________________________
zero_padding1d_23 (ZeroPadding1 (None, 10563, 128)   0           global_normalization_47[0][0]    
__________________________________________________________________________________________________
zero_padding1d_33 (ZeroPadding1 (None, 10563, 128)   0           global_normalization_68[0][0]    
__________________________________________________________________________________________________
zero_padding1d_43 (ZeroPadding1 (None, 10563, 128)   0           global_normalization_89[0][0]    
__________________________________________________________________________________________________
depthwise_conv1d_13 (DepthwiseC (None, 10547, 128)   512         zero_padding1d_13[0][0]          
__________________________________________________________________________________________________
depthwise_conv1d_23 (DepthwiseC (None, 10547, 128)   512         zero_padding1d_23[0][0]          
__________________________________________________________________________________________________
depthwise_conv1d_33 (DepthwiseC (None, 10547, 128)   512         zero_padding1d_33[0][0]          
__________________________________________________________________________________________________
depthwise_conv1d_43 (DepthwiseC (None, 10547, 128)   512         zero_padding1d_43[0][0]          
__________________________________________________________________________________________________
p_re_lu_27 (PReLU)              (None, 10547, 128)   128         depthwise_conv1d_13[0][0]        
__________________________________________________________________________________________________
p_re_lu_48 (PReLU)              (None, 10547, 128)   128         depthwise_conv1d_23[0][0]        
__________________________________________________________________________________________________
p_re_lu_69 (PReLU)              (None, 10547, 128)   128         depthwise_conv1d_33[0][0]        
__________________________________________________________________________________________________
p_re_lu_90 (PReLU)              (None, 10547, 128)   128         depthwise_conv1d_43[0][0]        
__________________________________________________________________________________________________
global_normalization_27 (Global (None, 10547, 128)   256         p_re_lu_27[0][0]                 
__________________________________________________________________________________________________
global_normalization_48 (Global (None, 10547, 128)   256         p_re_lu_48[0][0]                 
__________________________________________________________________________________________________
global_normalization_69 (Global (None, 10547, 128)   256         p_re_lu_69[0][0]                 
__________________________________________________________________________________________________
global_normalization_90 (Global (None, 10547, 128)   256         p_re_lu_90[0][0]                 
__________________________________________________________________________________________________
conv1d_41 (Conv1D)              (None, 10547, 64)    8256        global_normalization_27[0][0]    
__________________________________________________________________________________________________
conv1d_72 (Conv1D)              (None, 10547, 64)    8256        global_normalization_48[0][0]    
__________________________________________________________________________________________________
conv1d_103 (Conv1D)             (None, 10547, 64)    8256        global_normalization_69[0][0]    
__________________________________________________________________________________________________
conv1d_134 (Conv1D)             (None, 10547, 64)    8256        global_normalization_90[0][0]    
__________________________________________________________________________________________________
add_15 (Add)                    (None, 10547, 64)    0           add_14[0][0]                     
                                                                 conv1d_41[0][0]                  
__________________________________________________________________________________________________
add_28 (Add)                    (None, 10547, 64)    0           add_27[0][0]                     
                                                                 conv1d_72[0][0]                  
__________________________________________________________________________________________________
add_41 (Add)                    (None, 10547, 64)    0           add_40[0][0]                     
                                                                 conv1d_103[0][0]                 
__________________________________________________________________________________________________
add_54 (Add)                    (None, 10547, 64)    0           add_53[0][0]                     
                                                                 conv1d_134[0][0]                 
__________________________________________________________________________________________________
conv1d_43 (Conv1D)              (None, 10547, 128)   8320        add_15[0][0]                     
__________________________________________________________________________________________________
conv1d_74 (Conv1D)              (None, 10547, 128)   8320        add_28[0][0]                     
__________________________________________________________________________________________________
conv1d_105 (Conv1D)             (None, 10547, 128)   8320        add_41[0][0]                     
__________________________________________________________________________________________________
conv1d_136 (Conv1D)             (None, 10547, 128)   8320        add_54[0][0]                     
__________________________________________________________________________________________________
p_re_lu_28 (PReLU)              (None, 10547, 128)   128         conv1d_43[0][0]                  
__________________________________________________________________________________________________
p_re_lu_49 (PReLU)              (None, 10547, 128)   128         conv1d_74[0][0]                  
__________________________________________________________________________________________________
p_re_lu_70 (PReLU)              (None, 10547, 128)   128         conv1d_105[0][0]                 
__________________________________________________________________________________________________
p_re_lu_91 (PReLU)              (None, 10547, 128)   128         conv1d_136[0][0]                 
__________________________________________________________________________________________________
global_normalization_28 (Global (None, 10547, 128)   256         p_re_lu_28[0][0]                 
__________________________________________________________________________________________________
global_normalization_49 (Global (None, 10547, 128)   256         p_re_lu_49[0][0]                 
__________________________________________________________________________________________________
global_normalization_70 (Global (None, 10547, 128)   256         p_re_lu_70[0][0]                 
__________________________________________________________________________________________________
global_normalization_91 (Global (None, 10547, 128)   256         p_re_lu_91[0][0]                 
__________________________________________________________________________________________________
zero_padding1d_14 (ZeroPadding1 (None, 10579, 128)   0           global_normalization_28[0][0]    
__________________________________________________________________________________________________
zero_padding1d_24 (ZeroPadding1 (None, 10579, 128)   0           global_normalization_49[0][0]    
__________________________________________________________________________________________________
zero_padding1d_34 (ZeroPadding1 (None, 10579, 128)   0           global_normalization_70[0][0]    
__________________________________________________________________________________________________
zero_padding1d_44 (ZeroPadding1 (None, 10579, 128)   0           global_normalization_91[0][0]    
__________________________________________________________________________________________________
depthwise_conv1d_14 (DepthwiseC (None, 10547, 128)   512         zero_padding1d_14[0][0]          
__________________________________________________________________________________________________
depthwise_conv1d_24 (DepthwiseC (None, 10547, 128)   512         zero_padding1d_24[0][0]          
__________________________________________________________________________________________________
depthwise_conv1d_34 (DepthwiseC (None, 10547, 128)   512         zero_padding1d_34[0][0]          
__________________________________________________________________________________________________
depthwise_conv1d_44 (DepthwiseC (None, 10547, 128)   512         zero_padding1d_44[0][0]          
__________________________________________________________________________________________________
p_re_lu_29 (PReLU)              (None, 10547, 128)   128         depthwise_conv1d_14[0][0]        
__________________________________________________________________________________________________
p_re_lu_50 (PReLU)              (None, 10547, 128)   128         depthwise_conv1d_24[0][0]        
__________________________________________________________________________________________________
p_re_lu_71 (PReLU)              (None, 10547, 128)   128         depthwise_conv1d_34[0][0]        
__________________________________________________________________________________________________
p_re_lu_92 (PReLU)              (None, 10547, 128)   128         depthwise_conv1d_44[0][0]        
__________________________________________________________________________________________________
global_normalization_29 (Global (None, 10547, 128)   256         p_re_lu_29[0][0]                 
__________________________________________________________________________________________________
global_normalization_50 (Global (None, 10547, 128)   256         p_re_lu_50[0][0]                 
__________________________________________________________________________________________________
global_normalization_71 (Global (None, 10547, 128)   256         p_re_lu_71[0][0]                 
__________________________________________________________________________________________________
global_normalization_92 (Global (None, 10547, 128)   256         p_re_lu_92[0][0]                 
__________________________________________________________________________________________________
conv1d_18 (Conv1D)              (None, 10547, 64)    8256        global_normalization_11[0][0]    
__________________________________________________________________________________________________
conv1d_21 (Conv1D)              (None, 10547, 64)    8256        global_normalization_13[0][0]    
__________________________________________________________________________________________________
conv1d_24 (Conv1D)              (None, 10547, 64)    8256        global_normalization_15[0][0]    
__________________________________________________________________________________________________
conv1d_27 (Conv1D)              (None, 10547, 64)    8256        global_normalization_17[0][0]    
__________________________________________________________________________________________________
conv1d_30 (Conv1D)              (None, 10547, 64)    8256        global_normalization_19[0][0]    
__________________________________________________________________________________________________
conv1d_33 (Conv1D)              (None, 10547, 64)    8256        global_normalization_21[0][0]    
__________________________________________________________________________________________________
conv1d_36 (Conv1D)              (None, 10547, 64)    8256        global_normalization_23[0][0]    
__________________________________________________________________________________________________
conv1d_39 (Conv1D)              (None, 10547, 64)    8256        global_normalization_25[0][0]    
__________________________________________________________________________________________________
conv1d_42 (Conv1D)              (None, 10547, 64)    8256        global_normalization_27[0][0]    
__________________________________________________________________________________________________
conv1d_45 (Conv1D)              (None, 10547, 64)    8256        global_normalization_29[0][0]    
__________________________________________________________________________________________________
conv1d_49 (Conv1D)              (None, 10547, 64)    8256        global_normalization_32[0][0]    
__________________________________________________________________________________________________
conv1d_52 (Conv1D)              (None, 10547, 64)    8256        global_normalization_34[0][0]    
__________________________________________________________________________________________________
conv1d_55 (Conv1D)              (None, 10547, 64)    8256        global_normalization_36[0][0]    
__________________________________________________________________________________________________
conv1d_58 (Conv1D)              (None, 10547, 64)    8256        global_normalization_38[0][0]    
__________________________________________________________________________________________________
conv1d_61 (Conv1D)              (None, 10547, 64)    8256        global_normalization_40[0][0]    
__________________________________________________________________________________________________
conv1d_64 (Conv1D)              (None, 10547, 64)    8256        global_normalization_42[0][0]    
__________________________________________________________________________________________________
conv1d_67 (Conv1D)              (None, 10547, 64)    8256        global_normalization_44[0][0]    
__________________________________________________________________________________________________
conv1d_70 (Conv1D)              (None, 10547, 64)    8256        global_normalization_46[0][0]    
__________________________________________________________________________________________________
conv1d_73 (Conv1D)              (None, 10547, 64)    8256        global_normalization_48[0][0]    
__________________________________________________________________________________________________
conv1d_76 (Conv1D)              (None, 10547, 64)    8256        global_normalization_50[0][0]    
__________________________________________________________________________________________________
conv1d_80 (Conv1D)              (None, 10547, 64)    8256        global_normalization_53[0][0]    
__________________________________________________________________________________________________
conv1d_83 (Conv1D)              (None, 10547, 64)    8256        global_normalization_55[0][0]    
__________________________________________________________________________________________________
conv1d_86 (Conv1D)              (None, 10547, 64)    8256        global_normalization_57[0][0]    
__________________________________________________________________________________________________
conv1d_89 (Conv1D)              (None, 10547, 64)    8256        global_normalization_59[0][0]    
__________________________________________________________________________________________________
conv1d_92 (Conv1D)              (None, 10547, 64)    8256        global_normalization_61[0][0]    
__________________________________________________________________________________________________
conv1d_95 (Conv1D)              (None, 10547, 64)    8256        global_normalization_63[0][0]    
__________________________________________________________________________________________________
conv1d_98 (Conv1D)              (None, 10547, 64)    8256        global_normalization_65[0][0]    
__________________________________________________________________________________________________
conv1d_101 (Conv1D)             (None, 10547, 64)    8256        global_normalization_67[0][0]    
__________________________________________________________________________________________________
conv1d_104 (Conv1D)             (None, 10547, 64)    8256        global_normalization_69[0][0]    
__________________________________________________________________________________________________
conv1d_107 (Conv1D)             (None, 10547, 64)    8256        global_normalization_71[0][0]    
__________________________________________________________________________________________________
conv1d_111 (Conv1D)             (None, 10547, 64)    8256        global_normalization_74[0][0]    
__________________________________________________________________________________________________
conv1d_114 (Conv1D)             (None, 10547, 64)    8256        global_normalization_76[0][0]    
__________________________________________________________________________________________________
conv1d_117 (Conv1D)             (None, 10547, 64)    8256        global_normalization_78[0][0]    
__________________________________________________________________________________________________
conv1d_120 (Conv1D)             (None, 10547, 64)    8256        global_normalization_80[0][0]    
__________________________________________________________________________________________________
conv1d_123 (Conv1D)             (None, 10547, 64)    8256        global_normalization_82[0][0]    
__________________________________________________________________________________________________
conv1d_126 (Conv1D)             (None, 10547, 64)    8256        global_normalization_84[0][0]    
__________________________________________________________________________________________________
conv1d_129 (Conv1D)             (None, 10547, 64)    8256        global_normalization_86[0][0]    
__________________________________________________________________________________________________
conv1d_132 (Conv1D)             (None, 10547, 64)    8256        global_normalization_88[0][0]    
__________________________________________________________________________________________________
conv1d_135 (Conv1D)             (None, 10547, 64)    8256        global_normalization_90[0][0]    
__________________________________________________________________________________________________
conv1d_138 (Conv1D)             (None, 10547, 64)    8256        global_normalization_92[0][0]    
__________________________________________________________________________________________________
add_11 (Add)                    (None, 10547, 64)    0           conv1d_18[0][0]                  
                                                                 conv1d_21[0][0]                  
                                                                 conv1d_24[0][0]                  
                                                                 conv1d_27[0][0]                  
                                                                 conv1d_30[0][0]                  
__________________________________________________________________________________________________
add_17 (Add)                    (None, 10547, 64)    0           conv1d_33[0][0]                  
                                                                 conv1d_36[0][0]                  
                                                                 conv1d_39[0][0]                  
                                                                 conv1d_42[0][0]                  
                                                                 conv1d_45[0][0]                  
__________________________________________________________________________________________________
add_24 (Add)                    (None, 10547, 64)    0           conv1d_49[0][0]                  
                                                                 conv1d_52[0][0]                  
                                                                 conv1d_55[0][0]                  
                                                                 conv1d_58[0][0]                  
                                                                 conv1d_61[0][0]                  
__________________________________________________________________________________________________
add_30 (Add)                    (None, 10547, 64)    0           conv1d_64[0][0]                  
                                                                 conv1d_67[0][0]                  
                                                                 conv1d_70[0][0]                  
                                                                 conv1d_73[0][0]                  
                                                                 conv1d_76[0][0]                  
__________________________________________________________________________________________________
add_37 (Add)                    (None, 10547, 64)    0           conv1d_80[0][0]                  
                                                                 conv1d_83[0][0]                  
                                                                 conv1d_86[0][0]                  
                                                                 conv1d_89[0][0]                  
                                                                 conv1d_92[0][0]                  
__________________________________________________________________________________________________
add_43 (Add)                    (None, 10547, 64)    0           conv1d_95[0][0]                  
                                                                 conv1d_98[0][0]                  
                                                                 conv1d_101[0][0]                 
                                                                 conv1d_104[0][0]                 
                                                                 conv1d_107[0][0]                 
__________________________________________________________________________________________________
add_50 (Add)                    (None, 10547, 64)    0           conv1d_111[0][0]                 
                                                                 conv1d_114[0][0]                 
                                                                 conv1d_117[0][0]                 
                                                                 conv1d_120[0][0]                 
                                                                 conv1d_123[0][0]                 
__________________________________________________________________________________________________
add_56 (Add)                    (None, 10547, 64)    0           conv1d_126[0][0]                 
                                                                 conv1d_129[0][0]                 
                                                                 conv1d_132[0][0]                 
                                                                 conv1d_135[0][0]                 
                                                                 conv1d_138[0][0]                 
__________________________________________________________________________________________________
add_18 (Add)                    (None, 10547, 64)    0           add_11[0][0]                     
                                                                 add_17[0][0]                     
__________________________________________________________________________________________________
add_31 (Add)                    (None, 10547, 64)    0           add_24[0][0]                     
                                                                 add_30[0][0]                     
__________________________________________________________________________________________________
add_44 (Add)                    (None, 10547, 64)    0           add_37[0][0]                     
                                                                 add_43[0][0]                     
__________________________________________________________________________________________________
add_57 (Add)                    (None, 10547, 64)    0           add_50[0][0]                     
                                                                 add_56[0][0]                     
__________________________________________________________________________________________________
p_re_lu_30 (PReLU)              (None, 10547, 64)    64          add_18[0][0]                     
__________________________________________________________________________________________________
p_re_lu_51 (PReLU)              (None, 10547, 64)    64          add_31[0][0]                     
__________________________________________________________________________________________________
p_re_lu_72 (PReLU)              (None, 10547, 64)    64          add_44[0][0]                     
__________________________________________________________________________________________________
p_re_lu_93 (PReLU)              (None, 10547, 64)    64          add_57[0][0]                     
__________________________________________________________________________________________________
conv1d_46 (Conv1D)              (None, 10547, 64)    4160        p_re_lu_30[0][0]                 
__________________________________________________________________________________________________
conv1d_77 (Conv1D)              (None, 10547, 64)    4160        p_re_lu_51[0][0]                 
__________________________________________________________________________________________________
conv1d_108 (Conv1D)             (None, 10547, 64)    4160        p_re_lu_72[0][0]                 
__________________________________________________________________________________________________
conv1d_139 (Conv1D)             (None, 10547, 64)    4160        p_re_lu_93[0][0]                 
__________________________________________________________________________________________________
reshape (Reshape)               (None, 10547, 1, 64) 0           conv1d_46[0][0]                  
__________________________________________________________________________________________________
reshape_2 (Reshape)             (None, 10547, 1, 64) 0           conv1d_77[0][0]                  
__________________________________________________________________________________________________
reshape_4 (Reshape)             (None, 10547, 1, 64) 0           conv1d_108[0][0]                 
__________________________________________________________________________________________________
reshape_6 (Reshape)             (None, 10547, 1, 64) 0           conv1d_139[0][0]                 
__________________________________________________________________________________________________
global_normalization_30 (Global (None, 10547, 1, 64) 128         reshape[0][0]                    
__________________________________________________________________________________________________
global_normalization_51 (Global (None, 10547, 1, 64) 128         reshape_2[0][0]                  
__________________________________________________________________________________________________
global_normalization_72 (Global (None, 10547, 1, 64) 128         reshape_4[0][0]                  
__________________________________________________________________________________________________
global_normalization_93 (Global (None, 10547, 1, 64) 128         reshape_6[0][0]                  
__________________________________________________________________________________________________
reshape_1 (Reshape)             (None, 10547, 64)    0           global_normalization_30[0][0]    
__________________________________________________________________________________________________
reshape_3 (Reshape)             (None, 10547, 64)    0           global_normalization_51[0][0]    
__________________________________________________________________________________________________
reshape_5 (Reshape)             (None, 10547, 64)    0           global_normalization_72[0][0]    
__________________________________________________________________________________________________
reshape_7 (Reshape)             (None, 10547, 64)    0           global_normalization_93[0][0]    
__________________________________________________________________________________________________
lambda (Lambda)                 (None, 10547, 1, 64) 0           reshape_1[0][0]                  
__________________________________________________________________________________________________
lambda_2 (Lambda)               (None, 10547, 1, 64) 0           reshape_3[0][0]                  
__________________________________________________________________________________________________
lambda_4 (Lambda)               (None, 10547, 1, 64) 0           reshape_5[0][0]                  
__________________________________________________________________________________________________
lambda_6 (Lambda)               (None, 10547, 1, 64) 0           reshape_7[0][0]                  
__________________________________________________________________________________________________
conv2d_transpose (Conv2DTranspo (None, 10547, 1, 1)  129         lambda[0][0]                     
__________________________________________________________________________________________________
conv2d_transpose_1 (Conv2DTrans (None, 10547, 1, 1)  129         lambda_2[0][0]                   
__________________________________________________________________________________________________
conv2d_transpose_2 (Conv2DTrans (None, 10547, 1, 1)  129         lambda_4[0][0]                   
__________________________________________________________________________________________________
conv2d_transpose_3 (Conv2DTrans (None, 10547, 1, 1)  129         lambda_6[0][0]                   
__________________________________________________________________________________________________
lambda_1 (Lambda)               (None, 10547, 1)     0           conv2d_transpose[0][0]           
__________________________________________________________________________________________________
lambda_3 (Lambda)               (None, 10547, 1)     0           conv2d_transpose_1[0][0]         
__________________________________________________________________________________________________
lambda_5 (Lambda)               (None, 10547, 1)     0           conv2d_transpose_2[0][0]         
__________________________________________________________________________________________________
lambda_7 (Lambda)               (None, 10547, 1)     0           conv2d_transpose_3[0][0]         
__________________________________________________________________________________________________
concatenate (Concatenate)       (None, 10547, 4)     0           lambda_1[0][0]                   
                                                                 lambda_3[0][0]                   
                                                                 lambda_5[0][0]                   
                                                                 lambda_7[0][0]                   
==================================================================================================
…
